spectrogram_classifier.pth (torch, 109663 bytes, 8 tensors)

net.0.weight f4 [16, 1, 3, 3]
-0.06594994 0.36798316 0.20620972 0.40312827 0.62037885 -0.09423513 0.49885643 0.21760316
0.034679662 0.29769027 0.26912028 0.022014357 0.3665583 -0.0017690699 -0.037729338 0.35093844
0.02802307 -0.068735085 0.098232776 0.24337612 0.5858851 0.3812257 0.45992404 0.6206497
0.427583 0.2554494 0.22003339 -0.2843106 -0.29103366 -0.22956102 -0.16863719 -0.07252048
-0.11169333 0.2861152 0.1959978 0.24928112 0.48223644 -0.031917013 0.23184822 0.62665534
0.17772305 0.15456033 0.22976673 0.44261396 -0.073099285 0.250304 -0.12772271 0.17925927
-0.29816878 -0.23029625 -0.0874134 0.24377415 -0.17026345 -0.18999505 -0.19857931 -0.1573772
-0.24160802 -0.06135059 -0.07413135 0.05468919 -0.30917194 0.035348438 -0.1491566 0.2792862
0.44890025 0.022897901 0.3692978 0.5633947 0.388938 0.05303444 0.550647 0.17790405
-0.28569183 -0.31329876 -0.14490692 0.27101877 -0.28408536 0.022295356 -0.13240056 -0.15189275
0.0017688572 0.45349476 0.017774986 0.00484666 0.21984933 -0.18959536 0.44497144 -0.063391194
-0.0735228 0.45430687 0.35686797 -0.018519532 -0.15710127 -0.33015025 0.011449124 -0.14385107
-0.29444078 -0.19607772 0.11546495 0.34448585 -0.12270054 0.31180942 0.34360448 -0.028107788
0.18709897 0.28890017 0.15340053 0.53350943 -0.258826 -0.109156676 0.14132579 -0.1825537
0.031697147 -0.43215504 0.25905687 -0.27050027 0.26992205 -0.40206888 -0.053787224 -0.103753395
-0.15124443 -0.33074299 -0.17442259 0.3320152 0.04328891 0.31014562 0.11627575 -0.38721493
-0.025941694 -0.16611621 -0.006025253 0.13847777 0.021150716 -0.017184932 -0.43869343 -0.2543949
0.15567616 0.05685582 0.13832138 0.02925539 0.5405111 0.27929837 0.43475145 0.35746548
00000000: c310 87bd 4a68 bc3e a428 533e d466 ce3e
00000010: 26d1 1e3f 59fe c0bd 1c6a ff3e 5dd3 5e3e
00000020: 430c 0e3d dc6a 983e 22ca 893e 7457 b43c
00000030: 88ad bb3e 23e0 e7ba 148a 1abd 34ae b33e
00000040: a390 e53c fbc4 8cbd 442e c93d 9737 793e
00000050: 91fc 153f 0430 c33e 2a7b eb3e e6e2 1e3f
00000060: 29ec da3e 44ca 823e 6f50 613e 2991 91be
00000070: 5d02 95be 0b12 6bbe 3aaf 2cbe 9e85 94bd
00000080: 79bf e4bd b17d 923e a6b3 483e 8d43 7f3e
00000090: b2e7 f63e 6abb 02bd 9f69 6d3e 7c6c 203f
000000a0: 08fd 353e 1045 1e3e f847 6b3e 4c9e e23e
000000b0: 14b5 95bd d927 803e bec9 02be be8f 373e
000000c0: 94a9 98be c8d2 6bbe cc05 b3bd ee9f 793e
000000d0: 8b59 2ebe 108e 42be 6058 4bbe 7d27 21be
000000e0: 1868 77be c24a 7bbd 2dd2 97bd c601 603d
000000f0: c94b 9ebe 86c9 103d 82bc 18be 9afe 8e3e
00000100: 41d6 e53e 6194 bb3c 9a14 bd3e a33a 103f
00000110: e222 c73e a43a 593d 34f7 0c3f 7b2c 363e
00000120: 3346 92be b268 a0be 7b62 14be f9c2 8a3e
00000130: a373 91be c0a4 b63c 0394 07be c689 1bbe
00000140: 00d9 e73a 7730 e83e d99c 913c bbd0 9e3b
00000150: 2f20 613e 4925 42be 4cd3 e33e 3ed3 81bd
00000160: 1f93 96bd e99a e83e 66b7 b63e 46b6 97bc
00000170: 28df 20be 7409 a9be 1b95 3b3c b24d 13be
00000180: f1c0 96be 99c8 48be e378 ec3d 7360 b03e
00000190: 6c4a fbbd 7ca5 9f3e edec af3e 4e42 e6bc
000001a0: df96 3f3e b9ea 933e 0715 1d3e 1394 083f
000001b0: d784 84be 898d dfbd b5b7 103e 5bef 3abe
000001c0: ded4 013d 6d43 ddbe 1aa3 843e 037f 8abe
000001d0: 3933 8a3e f9db cdbe fe4f 5cbd a97c d4bd
000001e0: d2df 1abe 2557 a9be d69b 32be e5fd a93e
000001f0: b64f 313d 68cb 9e3e fb21 ee3d 0941 c6be
00000200: ad83 d4bc 5e1a 2abe 7c6f c5bb 1ecd 0d3e
00000210: 4444 ad3c 6ac7 8cbc 6d9c e0be 0c40 82be
00000220: 9269 1f3e a6e1 683d 1fa4 0d3e 00a9 ef3c
00000230: ef5e 0a3f 3200 8f3e be97 de3e b705 b73e

net.0.bias f4 [16]
-0.0063852943 0.20070705 0.14818336 0.09230619 -0.00082225614 -0.26901847 0.27938825 0.19153589
-0.17455506 -0.19989042 0.24102774 -0.00088594505 0.20106776 0.20304736 0.29049 -0.2406217
00000000: bb3b d1bb 2686 4d3e 61bd 173e 070b bd3d
00000010: ad8c 57ba cabc 89be fa0b 8f3e fc21 443e
00000020: 90be 32be 13b0 4cbe facf 763e c43e 68ba
00000030: b5e4 4d3e a6eb 4f3e 1bbb 943e 8965 76be

net.3.weight f4 [32, 16, 3, 3]
0.05315811 -0.047062103 -0.055081494 -0.031057246 0.026825733 0.00798287 -0.010000801 -0.02538121
0.010122644 -0.08614234 -0.055016495 0.04996171 0.016457774 0.041362297 -0.016300082 -0.047047146
-0.014161589 0.0668074 -0.041961063 -0.07655766 0.03866474 0.050498366 -0.032313995 -0.019138487
0.036491 -0.021696327 -0.07517231 -0.05144532 0.053099953 0.032009788 0.025482865 -0.009228587
0.030686785 0.050512582 0.021241857 -0.0103830695 -0.004140644 -0.048550606 -0.028383471 0.058199786
0.033398304 -0.02025473 -0.009321961 -0.059656113 0.05907587 0.036346026 -0.03350552 -0.07159418
-0.06209498 0.05900296 -0.029936235 -0.01425045 0.018420495 0.060646914 -0.030302582 0.04242738
-0.02583924 0.04961043 -0.0011008075 0.010839355 0.037051275 -0.056494582 -0.061945107 -0.082145646
-0.04668779 -0.04033049 -0.042446893 -0.09115309 -0.053470075 0.062480357 -0.051263563 -0.03442847
0.017313324 -0.018748693 0.06260473 -0.047904722 0.033882283 -0.048927557 0.023669578 0.065307565
-0.06183838 0.051757656 0.015742213 -0.03781265 -0.022130953 0.025243264 -0.015424244 0.016775662
0.066323675 -0.027123641 -0.0053323805 -0.00965335 -0.029462675 -0.008868174 0.001887427 0.0732742
-0.017063992 -0.07226811 -0.023128534 0.033160046 0.062864326 -0.042273175 0.00021926225 -0.07824299
0.023627674 0.0450894 -0.07567292 -0.064923815 -0.012509089 -0.07494093 -0.010751606 -0.018745407
-0.07054571 -0.03635363 -0.06937333 0.045781218 -0.05728269 0.04545452 -0.03542367 -0.028610315
-0.017506797 0.057322074 0.0401103 -0.06960258 -0.021501409 0.029247932 -0.03507876 0.04492446
-0.027676914 0.04669994 -0.014191591 -0.06313565 0.0109333815 -0.021841053 -0.07082176 -0.043113172
-0.020542204 0.082223214 -0.07317339 0.06346535 0.01904776 -0.026598541 0.07508673 -0.03878966
-0.049274523 -0.088128895 -0.06102536 -0.089518905 -0.09522508 -0.0478298 -0.06466229 -0.010630009
0.01010601 -0.056754738 -0.0010530537 0.035401355 -0.05065034 -0.11213813 -0.04483556 -0.0918594
0.003436329 0.011853572 -0.08455781 0.0031540336 -0.056266 -0.1023489 -0.014424289 -0.09347369
0.044057924 -0.044458352 0.019486982 0.060885068 0.035168707 0.032738846 -0.048452843 0.0066877534
0.032268066 0.06916442 -0.06370682 -0.027956028 -0.0017734322 -0.0921221 -0.109195724 -0.0937783
0.031280704 -0.004346544 0.052903004 0.02514218 -0.06244574 -0.073381424 -0.020738505 0.050465755
-0.019812196 -0.069037214 0.004831113 -0.020609558 -0.008697785 -0.012820989 0.028369369 0.00630271
-0.051170163 0.007604403 -0.083795056 0.047378957 0.05541938 -0.091739245 -0.07479551 -0.055665668
-0.08437677 0.020290595 0.050922655 -0.0742845 0.02038332 0.021686468 0.027537474 -0.08007156
-0.03380723 -0.05515359 -0.029691093 0.010920115 0.049986698 0.0036046803 -0.041045666 0.0054908916
0.031743497 -0.051231872 -0.11641068 0.0036710007 -0.05881058 -0.08618299 -0.049239263 0.0675738
0.060529206 0.0662178 -0.0725424 -0.091133155 0.012711154 0.009365699 -0.09520956 0.013491782
-0.045876432 0.0014375799 0.0018293468 -0.09645136 -0.079378925 -0.11670471 -0.027682979 -0.10883429
-0.0726285 -0.06123228 0.040543895 0.077097 -0.014026654 -0.0539234 0.04065361 -0.048406858
00000000: 51bc 593d 31c4 40bd 229d 61bd c46b febc
00000010: a4c1 db3c 95ca 023c 66da 23bc 41ec cfbc
00000020: 72d9 253c 656b b0bd fa58 61bd a6a4 4c3d
00000030: 74d2 863c 836b 293d c087 85bc 82b4 40bd
00000040: 0206 68bc 51d2 883d 5ddf 2bbd 43ca 9cbd
00000050: eb5e 1e3d 60d7 4e3d ae5b 04bd 51c8 9cbc
00000060: 9677 153d 7fbc b1bc f1f3 99bd 54b8 52bd
00000070: 567f 593d b21c 033d 71c1 d03c 8033 17bc
00000080: da62 fb3c 48e6 4e3d 6703 ae3c c01d 2abc
00000090: 3dae 87bb 00dd 46bd 7484 e8bc e662 6e3d
000000a0: a9cc 083d 3fed a5bc 23bb 18bc f859 74bd
000000b0: 8af9 713d 92df 143d 163d 09bd f89f 92bd
000000c0: 4e57 7ebd 16ad 713d d63c f5bc b87a 69bc
000000d0: 94e6 963c e668 783d 1f3d f8bc 55c8 2d3d
000000e0: d0ac d3bc 4e34 4b3d f848 90ba 8d97 313c
000000f0: 14c3 173d dd66 67bd 27ba 7dbd fa3b a8bd
00000100: b23b 3fbd 9531 25bd cbdc 2dbd 79ae babd
00000110: 7003 5bbd 67eb 7f3d bef9 51bd de04 0dbd
00000120: acd4 8d3c dc96 99bc e936 803d be37 44bd
00000130: 26c8 0a3d 4368 48bd b4e6 c13c f9bf 853d
00000140: 3e4a 7dbd d6ff 533d d0f5 803c 70e1 1abd
00000150: f94b b5bc f6ca ce3c f8b5 7cbc 1d6d 893c
00000160: b5d4 873d 6632 debc 40bb aebb 1629 1ebc
00000170: b55b f1bc d14b 11bc 8a63 f73a c910 963d
00000180: c9c9 8bbc 4e01 94bd 0d78 bdbc d4d2 073d
00000190: 03bf 803d a326 2dbd c3e9 6539 dc3d a0bd
000001a0: d38e c13c aaaf 383d 67fa 9abd c7f6 84bd
000001b0: ecf2 4cbc a17a 99bd 8127 30bc f88f 99bc
000001c0: 457a 90bd 8be7 14bd 9b13 8ebd 1685 3b3d
000001d0: 41a1 6abd 852e 3a3d 6918 11bd 2e60 eabc
000001e0: 6a6a 8fbc 8dca 6a3d b34a 243d cc8b 8ebd
000001f0: b923 b0bc 5c99 ef3c bfae 0fbd b602 383d
00000200: b2ba e2bc 7048 3f3d d983 68bc 434d 81bd
00000210: ed21 333c 02ec b2bc 000b 91bd 7097 30bd
00000220: 2048 a8bc a564 a83d eedb 95bd 1ffa 813d
00000230: 0c0a 9c3c 2fe5 d9bc 12c7 993d e8e1 1ebd
00000240: 15d4 49bd ec7c b4bd baf5 79bd b055 b7bd
00000250: 5e05 c3bd 2ee9 43bd aa6d 84bd 7d29 2ebc
00000260: ae93 253c a877 68bd 9e06 8aba 0301 113d
00000270: bb76 4fbd ada8 e5bd 7ea5 37bd c820 bcbd
00000280: 0934 613b 7c35 423c a52c adbd e7b3 4e3b
00000290: 2d77 66bd 4d9c d1bd da53 6cbc 226f bfbd
000002a0: 1576 343d f619 36bd 2aa3 9f3c 9f62 793d
000002b0: 100d 103d 2b19 063d 7d76 46bd f124 db3b
000002c0: 852b 043d 13a6 8d3d b978 82bd 0a04 e5bc
000002d0: 8372 e8ba 83aa bcbd 02a2 dfbd d60e c0bd
000002e0: 3220 003d 746d 8ebb d2b0 583d f9f6 cd3c
000002f0: 1bc7 7fbd 0049 96bd cce3 a9bc 2eb5 4e3d
00000300: 304d a2bc 6263 8dbd 504e 9e3b 60d5 a8bc
00000310: 2881 0ebc 200f 52bc e166 e83c f786 ce3b
00000320: ce97 51bd 5b2e f93b be9c abbd 7010 423d
00000330: 6fff 623d c9e1 bbbd 632e 99bd af01 64bd
00000340: bacd acbd 7638 a63c 4694 503d 7922 98bd
00000350: ecfa a63c d2a7 b13c 4596 e13c 8ffc a3bd
00000360: 7379 0abd bbe8 61bd bc3a f3bc 48ea 323c
00000370: dabe 4c3d 803c 6c3b 801f 28bd f0ec b33b
00000380: 7805 023d 83d8 51bd b968 eebd 2c95 703b
00000390: 5de3 70bd b580 b0bd 1caf 49bd 2264 8a3d
000003a0: 79ed 773d 339d 873d 1c91 94bd 05a4 babd
000003b0: 7242 503c 9772 193c 3bfd c2bd a30c 5d3c
000003c0: ede8 3bbd 2d6d bc3a b1c6 ef3a 4a88 c5bd
000003d0: 6b91 a2bd e102 efbd 6ac7 e2bc 83e4 debd
000003e0: 40be 94bd b3ce 7abd 5b11 263d 08e5 9d3d
000003f0: 0dd0 65bc c8de 5cbd 6684 263d 4546 46bd

net.3.bias f4 [32]
0.046956036 -0.09398293 0.1026283 0.065730676 0.04960393 0.033285227 -0.0219497 0.085880734
0.03744628 -0.05658028 0.009432675 -0.044474952 0.03986651 0.052306082 -0.028086228 0.0029257687
-0.01638516 0.009111884 -0.0018604305 0.10058948 0.04077381 0.014880072 -0.07417943 -0.093359515
-0.041363865 0.10150617 0.07828149 0.029073825 0.04080459 -0.023864364 -0.0574199 0.022963926
00000000: f954 403d 1f7a c0bd c92e d23d ce9d 863d
00000010: 7e2d 4b3d 1756 083d dbcf b3bc 3de2 af3d
00000020: 4561 193d b9c0 67bd 828b 1a3c 5e2b 36bd
00000030: 114b 233d e73e 563d 1715 e6bc 41be 3f3b
00000040: 2c3a 86bc 034a 153c b0d9 f3ba db01 ce3d
00000050: 7002 273d 8ccb 733c 63eb 97bd 4633 bfbd
00000060: 286d 29bd 78e2 cf3d 0c52 a03d 3b2c ee3c
00000070: b722 273d 337f c3bc 2131 6bbd d81e bc3c

net.6.weight f4 [64, 32, 3, 3]
-0.006856575 -0.03203498 -0.06075074 -0.0068104872 -0.060663886 0.030631207 -0.007568486 0.05782075
-0.013390539 0.04226423 0.057959054 0.01513181 -0.03193093 0.028211003 0.030222584 -0.055408306
-0.04994783 -0.049811497 0.035113342 -0.07918859 0.034347862 0.033027332 -0.05557806 0.017008286
0.020548709 0.006741965 -0.052891355 0.060760856 -0.02357039 -0.027579827 -0.043018956 -0.075068414
-0.08287679 -0.070482716 -0.0033045025 0.01793407 0.017590849 0.030512128 -0.021846266 -0.020508014
0.010571144 -0.0052826824 0.04349911 -0.0056255497 -0.0502823 -0.03363326 0.011980607 0.022183562
-0.020968003 0.005260148 0.03634919 -0.0071481224 -0.009364729 -0.011853977 -0.0232518 -0.047519162
0.022968473 -0.010527473 -0.019738141 0.019712029 -0.053830802 -0.008857681 -0.014186194 0.024123158
-0.01983212 0.010501202 -0.04160567 -0.09595526 0.0073019066 0.07812271 -0.03890761 0.003181376
-0.021456389 0.03695715 -0.05032433 0.014877762 0.043112475 -0.026130173 -0.071267106 0.032957062
0.03175407 -0.030273024 0.0135598425 0.01258594 0.05154328 -0.05692747 0.014382546 0.053517874
-0.054051485 0.019174384 -0.034296103 -0.019674635 -0.050919697 0.01742094 -0.009283535 -0.03284915
0.01314618 0.0357419 0.045476545 -0.045907002 -0.038803857 0.062184356 -0.05799435 -0.04876635
-0.05031702 -0.00825243 -0.12139101 0.06776792 0.02383725 -0.03215198 -0.061100177 0.038911197
-0.055317815 -0.02226306 -0.01390534 0.016134707 -0.061105546 0.030813703 -0.011909147 -0.01276977
0.021105047 0.031674612 0.053472873 0.023644643 -0.03292409 0.019143045 -0.009332823 0.010809166
-0.025616443 -0.031762738 0.025825 0.028641753 0.05166135 -0.0472774 0.004053749 -0.035392735
-0.02731509 0.043896608 -0.0050846166 -0.020768682 -0.0672608 0.03465853 -0.049576152 -0.005952783
-0.013492393 0.053783663 0.02441138 -0.053981654 -0.05862212 -0.031329684 0.016060915 -0.07315376
-0.011955322 -0.06519628 -0.007756792 0.0055938954 0.001894595 -0.015381223 -0.0682959 -0.030737553
3.805338e-05 0.107809715 0.04499047 0.039446548 0.015599415 -0.070554115 0.003607131 -0.0124215055
0.052247632 -0.0016635574 0.06319706 -0.007895994 0.036530394 0.0028099096 0.014948377 0.044030096
-0.05881952 0.030589834 -0.04667429 0.032743677 -0.053211395 -0.037319016 -0.053489637 -0.02895087
0.045704253 -0.0119378045 -0.028805112 -0.06961941 -0.018910209 -0.046734 -0.011068682 -0.073168315
0.015712548 -0.07839104 -0.016671792 -0.061638623 -0.00921911 -0.049682833 0.050755024 -0.053435143
-0.045402087 -0.05300558 0.0459697 0.030597722 0.03616855 0.0005182245 -6.416083e-05 -0.025457539
0.009423422 -0.03610288 -0.05421464 -0.04919977 -0.05723626 0.048658293 0.033793475 0.020495033
0.016717024 -0.01744825 0.009208767 -0.047215506 -0.060091343 -0.028115178 -0.012082404 -0.030350063
-0.013394481 0.005055033 -0.053159717 -0.043572705 0.02591094 -0.04706861 -0.013610236 0.024992371
0.03850703 -0.02275073 0.030338714 -0.027716413 0.07273098 -0.0061270036 -0.009698843 0.014631749
-0.079725474 -0.12265822 0.060690746 -0.04680088 -0.03236211 -0.043296173 -0.013130994 -0.05376147
0.041539606 -0.057518225 0.02490795 0.024162121 -0.00058433716 -0.06218119 0.0018804065 -0.05789504
00000000: 1fad e0bb 1c37 03bd c5d5 78bd 822a dfbb
00000010: b27a 78bd 4cee fa3c 1001 f8bb 73d5 6c3d
00000020: fe63 5bbc 421d 2d3d 7966 6d3d 69eb 773c
00000030: 02ca 02bd c31a e73c 5a95 f73c d2f3 62bd
00000040: 1996 4cbd 2407 4cbd 02d3 0f3d a12d a2bd
00000050: 58b0 0c3d ab47 073d d2a5 63bd f654 8b3c
00000060: c455 a83c b4eb dc3b 9ba4 58bd 60e0 783d
00000070: b116 c1bc 17ef e1bc a534 30bd 78bd 99bd
00000080: 4ebb a9bd 3e59 90bd 5a90 58bb 79ea 923c
00000090: af1a 903c 92f4 f93c f1f6 b2bc 6c00 a8bc
000000a0: 9732 2d3c 5a1a adbb 1f2c 323d 8856 b8bb
000000b0: d0f4 4dbd 07c3 09bd 4f4a 443c 4dba b53c
000000c0: 17c5 abbc 525d ac3b e3e2 143d cc3a eabb
000000d0: 856e 19bc 2f37 42bc 8f7a bebc 74a3 42bd
000000e0: 6128 bc3c 6c7b 2cbc e2b1 a1bc 1f7b a13c
000000f0: b07d 5cbd cf1f 11bc 366d 68bc ee9d c53c
00000100: f876 a2bc 3c0d 2c3c b56a 2abd 3184 c4bd
00000110: d544 ef3b cdfe 9f3d 965d 1fbd a27e 503b
00000120: 4fc5 afbc 6160 173d e220 4ebd dbc1 733c
00000130: b596 303d f20e d6bc 7df4 91bd fcfd 063d
00000140: 8e10 023d 22ff f7bc 1a2a 5e3c 4235 4e3c
00000150: 0c1f 533d c72c 69bd c5a4 6b3c 8f35 5b3d
00000160: 1765 5dbd 9913 9d3c 127a 0cbd b32c a1bc
00000170: 2c91 50bd 5cb6 8e3c f819 18bc d58c 06bd
00000180: 1363 573c 1966 123d 9d45 3a3d fb08 3cbd
00000190: cbf0 1ebd 06b5 7e3d 7c8b 6dbd 39bf 47bd
000001a0: 3819 4ebd 3335 07bc da9b f8bd e8c9 8a3d
000001b0: 5646 c33c cbb1 03bd 2e44 7abd 5961 1f3d
000001c0: ef94 62bd 0561 b6bc 39d3 63bc ef2c 843c
000001d0: cf49 7abd 056d fc3c 951e 43bc 4c38 51bc
000001e0: 7ee4 ac3c 3dbd 013d 5f06 5b3d 69b2 c13c
000001f0: 69db 06bd e0d1 9c3c b2e8 18bc ee18 313c
00000200: 93d9 d1bc a519 02bd f38e d33c 1ca2 ea3c
00000210: da9a 533d f2a5 41bd 50d5 843b f9f7 10bd
00000220: e5c3 dfbc eecc 333d db9c a6bb 1523 aabc
00000230: 08c0 89bd 1af6 0d3d 5d10 4bbd 900f c3bb
00000240: 330f 5dbc 424c 5c3d 60fa c73c de1b 5dbd
00000250: c01d 70bd 8e53 00bd 2e92 833c a3d1 95bd
00000260: 41e0 43bc a185 85bd b02c febb ff4c b73b
00000270: 0f54 f83a 8601 7cbc b9de 8bbd 52cd fbbc
00000280: 819b 1f38 57cb dc3d ed47 383d b492 213d
00000290: b094 7f3c ad7e 90bd 9e65 6c3b 9283 4bbc
000002a0: 9d01 563d b90b daba 766d 813d 335e 01bc
000002b0: e5a0 153d 7626 383b 0aea 743c e758 343d
000002c0: bdec 70bd 8897 fa3c 8a2d 3fbd 3c1e 063d
000002d0: 31f4 59bd d3db 18bd f317 5bbd 602a edbc
000002e0: 6234 3b3d c896 43bc b3f8 ebbc 9f94 8ebd
000002f0: 95e9 9abc 276c 3fbd 6b59 35bc 45d9 95bd
00000300: 9ab7 803c 7b8b a0bd 4893 88bc c878 7cbd
00000310: c00b 17bc 3a80 4bbd 80e4 4f3d cfde 5abd
00000320: 8af7 39bd 611c 59bd b94a 3c3d 13a8 fa3c
00000330: 7925 143d 75d9 073a 158e 86b8 548c d0bc
00000340: b264 1a3c 9de0 13bd 2c10 5ebd b385 49bd
00000350: 9270 6abd eb4d 473d 076b 0a3d 33e5 a73c
00000360: 24f2 883c a2ef 8ebc 5ee0 163c 0c65 41bd
00000370: 5722 76bd cd51 e6bc 47f5 45bc b2a0 f8bc
00000380: 8674 5bbc b1a4 a53b 01be 59bd 4b79 32bd
00000390: 2e43 d43c 04cb 40bd 78fd 5ebc cdbc cc3c
000003a0: 8cb9 1d3d bd5f babc e588 f83c 880d e3bc
000003b0: fbf3 943d 08c5 c8bb e5e7 1ebc 01ba 6f3c
000003c0: 1c47 a3bd 3c34 fbbd dc96 783d 48b2 3fbd
000003d0: 228e 04bd 5457 31bd 6123 57bc fd34 5cbd
000003e0: 6f25 2a3d 3b98 6bbd c20b cc3c a4ef c53c
000003f0: 342e 19ba b4b1 7ebd f977 f63a 5923 6dbd

net.6.bias f4 [64]
-0.010475845 0.02428581 0.05172145 0.005318904 0.012022162 -0.036077578 -0.008597941 0.0702361
-0.048196558 0.041567244 0.070504285 -0.037120245 0.013116259 -0.018988064 -0.066506185 -0.035490688
-0.0021808082 -0.060561985 0.006010316 -0.012758242 0.0489093 0.0037118015 -0.045732155 -0.023099577
-4.5366993e-05 0.050957717 -0.016714796 0.04582504 0.0059400885 0.006802044 0.028945362 -0.0010010513
-0.013665469 0.050135624 -0.04410384 0.006073059 0.018504051 -0.04686672 0.051900726 -0.009606522
0.008293337 0.028198835 0.03725891 -0.0056734257 -0.004362147 -0.07084019 -0.05287706 0.01214225
0.04442776 0.02511856 -0.0017176401 -0.071500055 0.07960285 -0.020432279 -0.008953217 0.010414323
-0.06520101 0.050303377 0.04691967 -0.011747372 0.037161384 0.018396707 -0.0586533 0.054385588
00000000: e1a2 2bbc 09f3 c63c dfd9 533d 334a ae3b
00000010: 9af8 443c 15c6 13bd 61de 0cbc f2d7 8f3d
00000020: c169 45bd 6a42 2a3d 8d64 903d 660b 18bd
00000030: 94e5 563c db8c 9bbc 6534 88bd af5e 11bd
00000040: e4eb 0ebb d80f 78bd 2ff2 c43b f207 51bc
00000050: 1e55 483d b241 733b a451 3bbd 533b bdbc
00000060: 7048 3eb8 0ab9 503d 78ed 88bc 0ab3 3b3d
00000070: 13a5 c23b aee3 de3b d31e ed3c b535 83ba
00000080: 22e5 5fbc 035b 4d3d 3aa6 34bd 8300 c73b
00000090: cf95 973c 51f7 3fbd db95 543d ac64 1dbc
000000a0: c7e0 073c 3e01 e73c cc9c 183d 25e8 b9bb
000000b0: 57f0 8ebb a914 91bd 9e95 58bd 4af0 463c
000000c0: e2f9 353d 70c5 cd3c 7022 e1ba 9f6e 92bd
000000d0: d206 a33d 9861 a7bc 84b0 12bc d6a0 2a3c
000000e0: 1b88 85bd ea0a 4e3d d72e 403d 0d78 40bc
000000f0: 8936 183d b1b4 963c 713e 70bd 6cc3 5e3d

fc.weight f4 [3, 1024]
0.005057046 -0.009820706 -0.018517392 -0.02695325 0.011086295 0.0131651005 0.008744227 -0.01594261
0.0025589147 0.0021455856 0.0056042993 -0.009635398 -0.010067902 -0.004646278 -0.013938701 0.03511854
-0.027174968 -0.0028189856 -0.10664502 -0.0035160487 -0.013827227 -0.04111224 -0.09786645 0.034856297
0.047313347 0.005630712 -0.13456814 -0.043364767 -0.039696544 0.041691683 -0.005824631 0.04001695
-0.18240243 -0.028818265 -0.045315728 0.091987096 -0.09935259 0.048424996 -0.19699599 -0.005096415
-0.02886237 0.16278055 0.009818637 0.05020277 0.031631153 0.091604866 0.044042654 0.032746416
0.011624058 0.0023236622 0.03264937 0.020236498 -0.021840196 0.012556167 -0.008766505 0.023465568
-0.0015291597 -0.014886991 -0.011912609 -0.010288722 0.020606251 -0.006031383 -0.010611785 0.006320706
-0.05073598 -0.024716105 -0.09449235 0.21133827 -0.0023587542 -0.017379137 -0.14051984 0.054061748
-0.07675441 -0.029683748 -0.06923335 -0.027664058 0.0049570506 0.060660172 0.065644935 0.029143117
-0.0032262607 0.018867843 0.031377323 -0.0021965439 0.021695636 0.0198729 0.050084386 0.008372779
0.022999987 -0.0040693106 -0.015415446 -0.011970988 -0.038179673 -0.0063973116 0.00799335 0.00064893934
0.040377777 -0.050348047 -0.18824363 -0.005969897 0.00078553014 -0.07042184 -0.12648247 0.09389753
0.03153454 0.003335239 -0.18552752 -0.10569102 -0.035591777 0.08521746 0.043772988 0.06896489
-0.0574528 -0.009536708 -0.0072709047 -0.02355811 -0.06937844 -0.022564571 -0.0064519006 -0.032445673
-0.029714076 -0.013851903 -0.044998087 -0.022913449 -0.015733376 -0.025364876 -0.02985778 -0.013153313
-0.011700753 -0.030869186 0.011023276 -0.0068876185 0.0059290733 -0.021382097 0.020563323 0.021642666
-0.0065476038 0.0071801357 -0.01913518 -0.0019561313 0.025578476 -0.0007361807 0.009703029 0.021261878
0.023897422 -0.030368788 0.025573442 -0.00922653 0.0004524611 -0.033356067 0.0074561713 -0.0025168636
-0.009948783 0.01766758 -0.0041529816 0.0051700585 0.012742368 0.0026695465 0.022906885 0.016497666
0.09592195 -0.021909207 -0.07006521 -0.048227403 0.09725793 -0.06453151 -0.009832234 0.024346273
0.038883045 -0.05453791 -0.024736376 -0.04595775 -0.061905086 -0.015233727 -0.04090718 -0.018102147
0.003578551 -0.03278264 0.028350078 0.007069126 -0.006638256 -0.015256898 0.00702874 -0.026855323
-0.008563487 0.018728951 0.010542195 -0.025643576 0.029734198 0.0045077987 0.015430748 -0.020286739
0.017526744 -0.04545047 -0.12705922 0.036077615 0.005204989 -0.007632499 -0.09707057 0.027463501
0.019869251 0.03477815 -0.13203654 -0.06547932 -0.04039608 0.04769281 0.049024645 0.028009122
-0.039926894 -0.008209581 -0.0032302856 -0.0045844926 -0.036620658 0.039152756 -0.010410793 -0.018093826
0.018872248 -0.0045354683 -0.030845296 -0.006904657 0.027475027 -0.049277835 -0.0077213566 0.014162732
0.15770566 0.253983 0.22703616 0.17496252 0.17275439 0.3475773 0.20012222 0.13369322
0.009644747 0.20439045 0.06414447 0.026623072 -0.15901063 0.038941525 -0.024061559 -0.0104899295
0.010753188 -0.004961776 -0.007892968 0.0030696287 -0.021866856 0.0016671638 0.020817759 -0.015426642
-0.026406275 0.018771103 0.024683628 -0.027849548 -0.0046829446 -0.021398779 0.0067638247 0.0149569
00000000: 94b5 a53b 07e7 20bc c9b1 97bc 10cd dcbc
00000010: 4ba3 353c 6fb2 573c f243 0f3c 149a 82bc
00000020: 77b3 273b f49c 0c3b 45a4 b73b cadd 1dbc
00000030: d7f3 24bc ce3f 98bb 265f 64bc 75d8 0f3d
00000040: 0a9e debc bbbe 38bb b468 dabd 826d 66bb
00000050: 988b 62bc 4f65 28bd 356e c8bd 7ac5 0e3d
00000060: a4cb 413d d681 b83b 3bcc 09be 419f 31bd
00000070: d898 22bd e6c4 2a3d 8cdc bebb d0e8 233d
00000080: b4c7 3abe 4814 ecbc fc9c 39bd bb63 bc3d
00000090: 5f79 cbbd 4a59 463d 51b9 49be d4ff a6bb
000000a0: c770 ecbc f2af 263e 59de 203c 6ba1 4d3d
000000b0: ab8f 013d 559b bb3d 1266 343d 1b21 063d
000000c0: d572 3e3c 9548 183b 59bb 053d 03c7 a53c
000000d0: 36ea b2bc 62b8 4d3c 63a1 0fbc dd3a c03c
000000e0: 166e c8ba 91e8 73bc 1b2d 43bc 0792 28bc
000000f0: 71ce a83c e8a2 c5bb 0ddd 2dbc ed1d cf3b
00000100: 88d0 4fbd 6e79 cabc 3585 c1bd 0f69 583e
00000110: 5495 1abb b15e 8ebc 6fe4 0fbe da6f 5d3d
00000120: 6b31 9dbd 552b f3bc 37ca 8dbd bc9f e2bc
00000130: c16e a23b cd76 783d da70 863d 8cbd ee3c
00000140: ac6f 53bb bc90 9a3c 8285 003d e4f3 0fbb
00000150: 0cbb b13c 7ecc a23c 4925 4d3d fb2d 093c
00000160: 786a bc3c da57 85bb 1191 7cbc f621 44bc
00000170: 4a62 1cbd 8aa0 d1bb 8af6 023c 951d 2a3a
00000180: 2b63 253d c139 4ebd f0c2 40be 209f c3bb
00000190: 09ec 4d3a 5339 90bd 9f84 01be 594d c03d
000001a0: 5d2a 013d 0694 5a3b edfa 3dbe 8974 d8bd
000001b0: afc8 11bd 7e86 ae3d 4e4b 333d 773d 8d3d
000001c0: a153 6bbd da3f 1cbc c540 eebb f0fc c0bc
000001d0: 4916 8ebd 56d9 b8bc 776a d3bb c1e5 04bd
000001e0: ef6a f3bc 18f3 62bc ea4f 38bd fcb4 bbbc
000001f0: 48e3 80bc 00ca cfbc 4e98 f4bc fe80 57bc
00000200: 84b4 3fbc 60e1 fcbc f89a 343c 88b1 e1bb
00000210: ac48 c23b 8229 afbc 6a74 a83c f64b b13c
00000220: 488d d6bb 5847 eb3b 62c1 9cbc 7032 00bb
00000230: f489 d13c 40fc 40ba 74f9 1e3c 642d ae3c
00000240: 87c4 c33c f7c7 f8bc 657f d13c df2a 17bc
00000250: 4d38 ed39 5fa0 08bd e652 f43b f7f1 24bb
00000260: 3800 23bc 9abb 903c bc15 88bb 9869 a93b
00000270: 5dc5 503c 8ff3 2e3b 38a7 bb3c 1d26 873c
00000280: ba72 c43d f07a b3bc 597e 8fbd 198a 45bd
00000290: 2a2f c73d 1929 84bd 6117 21bc d671 c73c
000002a0: d443 1f3d 2563 5fbd f1a3 cabc 323e 3cbd
000002b0: 3090 7dbd e296 79bc 4a8e 27bd f44a 94bc
000002c0: 2086 6a3b 1747 06bd 6c3e e83c 20a4 e73b
000002d0: ba85 d9bb 11f8 79bc 5851 e63b b2ff dbbc
000002e0: de4d 0cbc 756d 993c 2cb9 2c3c 7a12 d2bc
000002f0: 2295 f33c 28b6 933b 40d1 7c3c 6030 a6bc
00000300: 3f94 8f3c 462a 3abd d01b 02be 1fc6 133d
00000310: 9d8e aa3b 0b1a fabb efcc c6bd 23fb e03c
00000320: d7c4 a23c 8973 0e3d 9634 07be 061a 86bd
00000330: 5c76 25bd 8959 433d 11ce 483d 6373 e53c
00000340: 628a 23bd 7a81 06bc 33b3 53bb 8339 96bb
00000350: 8bff 15bd a45e 203d 0892 2abc 8139 94bc
00000360: f999 9a3c 449e 94bb 46af fcbc 7640 e2bb
00000370: 4f13 e13c 8ed7 49bd 6f03 fdbb ce0a 683c
00000380: 987d 213e 0f0a 823e 2b7c 683e 6029 333e
00000390: 87e6 303e a7f5 b13e d7ec 4c3e e0e6 083e
000003a0: 0005 1e3c bb4b 513e 2d5e 833d a118 da3c
000003b0: afd3 22be 2681 1f3d bf1c c5bc f4dd 2bbc
000003c0: 242e 303c 6596 a2bb 8251 01bc d32b 493b
000003d0: 1f22 b3bc bc84 da3a 018a aa3c 07c0 7cbc
000003e0: f951 d8bc dbc5 993c 5235 ca3c bc24 e4bc
000003f0: 6373 99bb 7e4c afbc 13a3 dd3b c90d 753c

fc.bias f4 [3]
-0.022497436 0.06006179 0.00049307995
00000000: 8b4c b8bc 5a03 763d 0942 013a
